…
005, warmup_epochs=3.0, warmup_momentum=0.8, warmup_bias_lr=0.1, box=7.5, cls=0.5, dfl=1.5, pose=12.0, kobj=1.0, label_smoothing=0.0, nbs=64, hsv_h=0.015, hsv_s=0.7, hsv_v=0.4, degrees=0.0, translate=0.1, scale=0.5, shear=0.0, perspective=0.0, flipud=0.0, fliplr=0.5, bgr=0.0, mosaic=1.0, mixup=0.0, copy_paste=0.0, auto_augment=randaugment, erasing=0.4, crop_fraction=1.0, cfg=None, tracker=botsort.yaml, save_dir=runs\detect\train10

                   from  n    params  module                                       arguments                     
  0                  -1  1       464  ultralytics.nn.modules.conv.Conv             [3, 16, 3, 2]                 
  1                  -1  1      2336  ultralytics.nn.modules.conv.Conv             [16, 16, 3, 2]                
  2                  -1  1      1888  ultralytics.nn.modules.block.C2f             [16, 16, 1, True]             
  3                  -1  1      4672  ultralytics.nn.modules.conv.Conv             [16, 32, 3, 2]                
  4                  -1  1      7360  ultralytics.nn.modules.block.C2f             [32, 32, 1, True]             
  5                  -1  1     18560  ultralytics.nn.modules.conv.Conv             [32, 64, 3, 2]                
  6                  -1  1     29056  ultralytics.nn.modules.block.C2f             [64, 64, 1, True]             
  7                  -1  0     36992  ultralytics.nn.modules.conv.Conv             [64, 64, 3, 2]                
  8                  -1  0      8448  ultralytics.nn.modules.block.C2f             [64, 64, 0, True]             
  9                  -1  1     18752  ultralytics.nn.modules.block.SPPF            [64, 128, 5]                  
 10                  -1  1         0  torch.nn.modules.upsampling.Upsample         [None, 2, 'nearest']          
 11             [-1, 6]  1         0  ultralytics.nn.modules.conv.Concat           [1]                           
 12                  -1  1     37248  ultralytics.nn.modules.block.C2f             [192, 64, 1]                  
 13                  -1  1         0  torch.nn.modules.upsampling.Upsample         [None, 2, 'nearest']          
 14             [-1, 4]  1         0  ultralytics.nn.modules.conv.Concat           [1]                           
 15                  -1  1      9408  ultralytics.nn.modules.block.C2f             [96, 32, 1]                   
 16                  -1  1     18560  ultralytics.nn.modules.conv.Conv             [32, 64, 3, 2]                
 17            [-1, 12]  1         0  ultralytics.nn.modules.conv.Concat           [1]                           
 18                  -1  1     10432  ultralytics.nn.modules.block.C2f             [128, 32, 1]                  
 19                  -1  1     18560  ultralytics.nn.modules.conv.Conv             [32, 64, 3, 2]                
 20             [-1, 9]  1         0  ultralytics.nn.modules.conv.Concat           [1]                           
 21                  -1  1     37248  ultralytics.nn.modules.block.C2f             [192, 64, 1]                  
 22        [15, 18, 21]  1    262579  ultralytics.nn.modules.head.Detect           [1, [32, 32, 64]]             
YOLOv8n summary: 204 layers, 522563 parameters, 522547 gradients, 2.4 GFLOPs

Freezing layer 'model.22.dfl.conv.weight'
Plotting labels to runs\detect\train10\labels.jpg... 
[34m[1moptimizer:[0m 'optimizer=auto' found, ignoring 'lr0=0.01' and 'momentum=0.937' and determining best 'optimizer', 'lr0' and 'momentum' automatically... 
[34m[1moptimizer:[0m AdamW(lr=0.002, momentum=0.9) with parameter groups 51 weight(decay=0.0), 58 weight(decay=0.0005), 57 bias(decay=0.0)
…
